…
  WEIGHT_DECAY_NORM: 0.0
TEST:
  AUG:
    ENABLED: False
    FLIP: True
    MAX_SIZE: 4000
    MIN_SIZES: (400, 500, 600, 700, 800, 900, 1000, 1100, 1200)
  DETECTIONS_PER_IMAGE: 100
  EVAL_PERIOD: 0
  EXPECTED_RESULTS: []
  KEYPOINT_OKS_SIGMAS: []
  PRECISE_BN:
    ENABLED: False
    NUM_ITER: 200
VERSION: 2
VIS_PERIOD: 0
[04/02 00:44:41] detectron2 INFO: Full config saved to checkpoints/MRCN-SAN19-patchwise-3x/config.yaml
[04/02 00:44:41] d2.utils.env INFO: Using a generated random seed 41370203
[04/02 00:44:44] d2.engine.defaults INFO: Model:
GeneralizedRCNN(
  (backbone): FPN(
    (fpn_lateral2): Conv2d(256, 256, kernel_size=(1, 1), stride=(1, 1))
    (fpn_output2): Conv2d(256, 256, kernel_size=(3, 3), stride=(1, 1), padding=(1, 1))
    (fpn_lateral3): Conv2d(512, 256, kernel_size=(1, 1), stride=(1, 1))
    (fpn_output3): Conv2d(256, 256, kernel_size=(3, 3), stride=(1, 1), padding=(1, 1))
    (fpn_lateral4): Conv2d(1024, 256, kernel_size=(1, 1), stride=(1, 1))
    (fpn_output4): Conv2d(256, 256, kernel_size=(3, 3), stride=(1, 1), padding=(1, 1))
    (fpn_lateral5): Conv2d(2048, 256, kernel_size=(1, 1), stride=(1, 1))
    (fpn_output5): Conv2d(256, 256, kernel_size=(3, 3), stride=(1, 1), padding=(1, 1))
    (top_block): LastLevelMaxPool()
    (bottom_up): SAN(
      (conv_in): Conv2d(3, 64, kernel_size=(1, 1), stride=(1, 1), bias=False)
      (bn_in): BatchNorm2d(64, eps=1e-05, momentum=0.1, affine=True, track_running_stats=True)
      (conv0): Conv2d(64, 64, kernel_size=(1, 1), stride=(1, 1), bias=False)
      (bn0): BatchNorm2d(64, eps=1e-05, momentum=0.1, affine=True, track_running_stats=True)
      (layer0): Sequential(
        (0): Bottleneck(
          (bn1): BatchNorm2d(64, eps=1e-05, momentum=0.1, affine=True, track_running_stats=True)
          (sam): SAM(
            (conv1): Conv2d(64, 4, kernel_size=(1, 1), stride=(1, 1))
            (conv2): Conv2d(64, 4, kernel_size=(1, 1), stride=(1, 1))
            (conv3): Conv2d(64, 16, kernel_size=(1, 1), stride=(1, 1))
            (conv_w): Sequential(
              (0): BatchNorm2d(40, eps=1e-05, momentum=0.1, affine=True, track_running_stats=True)
              (1): ReLU(inplace=True)
              (2): Conv2d(40, 2, kernel_size=(1, 1), stride=(1, 1), bias=False)
              (3): BatchNorm2d(2, eps=1e-05, momentum=0.1, affine=True, track_running_stats=True)
              (4): ReLU(inplace=True)
              (5): Conv2d(2, 18, kernel_size=(1, 1), stride=(1, 1))
            )
            (unfold_i): Unfold(kernel_size=1, dilation=1, padding=0, stride=1)
            (unfold_j): Unfold(kernel_size=3, dilation=1, padding=0, stride=1)
            (pad): ReflectionPad2d((1, 1, 1, 1))
            (aggregation): Aggregation()
          )
          (bn2): BatchNorm2d(16, eps=1e-05, momentum=0.1, affine=True, track_running_stats=True)
          (conv): Conv2d(16, 64, kernel_size=(1, 1), stride=(1, 1))
          (relu): ReLU(inplace=True)
        )
        (1): Bottleneck(
          (bn1): BatchNorm2d(64, eps=1e-05, momentum=0.1, affine=True, track_running_stats=True)
          (sam): SAM(
            (conv1): Conv2d(64, 4, kernel_size=(1, 1), stride=(1, 1))
            (conv2): Conv2d(64, 4, kernel_size=(1, 1), stride=(1, 1))
            (conv3): Conv2d(64, 16, kernel_size=(1, 1), stride=(1, 1))
            (conv_w): Sequential(
              (0): BatchNorm2d(40, eps=1e-05, momentum=0.1, affine=True, track_running_stats=True)
              (1): ReLU(inplace=True)
              (2): Conv2d(40, 2, kernel_size=(1, 1), stride=(1, 1), bias=False)
              (3): BatchNorm2d(2, eps=1e-05, momentum=0.1, affine=True, track_running_stats=True)
              (4): ReLU(inplace=True)
              (5): Conv2d(2, 18, kernel_size=(1, 1), stride=(1, 1))
            )
            (unfold_i): Unfold(kernel_size=1, dilation=1, padding=0, stride=1)
            (unfold_j): Unfold(kernel_size=3, dilation=1, padding=0, stride=1)
            (pad): ReflectionPad2d((1, 1, 1, 1))
            (aggregation): Aggregation()
          )
          (bn2): BatchNorm2d(16, eps=1e-05, momentum=0.1, affine=True, track_running_stats=True)
          (conv): Conv2d(16, 64, kernel_size=(1, 1), stride=(1, 1))
          (relu): ReLU(inplace=True)
        )
        (2): Bottleneck(
          (bn1): BatchNorm2d(64, eps=1e-05, momentum=0.1, affine=True, track_running_stats=True)
          (sam): SAM(
            (conv1): Conv2d(64, 4, kernel_size=(1, 1), stride=(1, 1))
            (conv2): Conv2d(64, 4, kernel_size=(1, 1), stride=(1, 1))
            (conv3): Conv2d(64, 16, kernel_size=(1, 1), stride=(1, 1))
            (conv_w): Sequential(
              (0): BatchNorm2d(40, eps=1e-05, momentum=0.1, affine=True, track_running_stats=True)
              (1): ReLU(inplace=True)
              (2): Conv2d(40, 2, kernel_size=(1, 1), stride=(1, 1), bias=False)
              (3): BatchNorm2d(2, eps=1e-05, momentum=0.1, affine=True, track_running_stats=True)
              (4): ReLU(inplace=True)
              (5): Conv2d(2, 18, kernel_size=(1, 1), stride=(1, 1))
            )
            (unfold_i): Unfold(kernel_size=1, dilation=1, padding=0, stride=1)
            (unfold_j): Unfold(kernel_size=3, dilation=1, padding=0, stride=1)
            (pad): ReflectionPad2d((1, 1, 1, 1))
            (aggregation): Aggregation()
          )
          (bn2): BatchNorm2d(16, eps=1e-05, momentum=0.1, affine=True, track_running_stats=True)
          (conv): Conv2d(16, 64, kernel_size=(1, 1), stride=(1, 1))
          (relu): ReLU(inplace=True)
        )
      )
      (conv1): Conv2d(64, 256, kernel_size=(1, 1), stride=(1, 1), bias=False)
      (bn1): BatchNorm2d(256, eps=1e-05, momentum=0.1, affine=True, track_running_stats=True)
      (layer1): Sequential(
        (0): Bottleneck(
          (bn1): BatchNorm2d(256, eps=1e-05, momentum=0.1, affine=True, track_running_stats=True)
          (sam): SAM(
            (conv1): Conv2d(256, 16, kernel_size=(1, 1), stride=(1, 1))
            (conv2): Conv2d(256, 16, kernel_size=(1, 1), stride=(1, 1))
            (conv3): Conv2d(256, 64, kernel_size=(1, 1), stride=(1, 1))
            (conv_w): Sequential(
              (0): BatchNorm2d(800, eps=1e-05, momentum=0.1, affine=True, track_running_stats=True)
              (1): ReLU(inplace=True)
              (2): Conv2d(800, 8, kernel_size=(1, 1), stride=(1, 1), bias=False)
              (3): BatchNorm2d(8, eps=1e-05, momentum=0.1, affine=True, track_running_stats=True)
              (4): ReLU(inplace=True)
              (5): Conv2d(8, 392, kernel_size=(1, 1), stride=(1, 1))
            )
            (unfold_i): Unfold(kernel_size=1, dilation=1, padding=0, stride=1)
            (unfold_j): Unfold(kernel_size=7, dilation=1, padding=0, stride=1)
            (pad): ReflectionPad2d((3, 3, 3, 3))
            (aggregation): Aggregation()
          )
          (bn2): BatchNorm2d(64, eps=1e-05, momentum=0.1, affine=True, track_running_stats=True)
          (conv): Conv2d(64, 256, kernel_size=(1, 1), stride=(1, 1))
          (relu): ReLU(inplace=True)
        )
        (1): Bottleneck(
          (bn1): BatchNorm2d(256, eps=1e-05, momentum=0.1, affine=True, track_running_stats=True)
          (sam): SAM(
            (conv1): Conv2d(256, 16, kernel_size=(1, 1), stride=(1, 1))
            (conv2): Conv2d(256, 16, kernel_size=(1, 1), stride=(1, 1))
            (conv3): Conv2d(256, 64, kernel_size=(1, 1), stride=(1, 1))
            (conv_w): Sequential(
              (0): BatchNorm2d(800, eps=1e-05, momentum=0.1, affine=True, track_running_stats=True)
              (1): ReLU(inplace=True)
              (2): Conv2d(800, 8, kernel_size=(1, 1), stride=(1, 1), bias=False)
              (3): BatchNorm2d(8, eps=1e-05, momentum=0.1, affine=True, track_running_stats=True)
              (4): ReLU(inplace=True)
              (5): Conv2d(8, 392, kernel_size=(1, 1), stride=(1, 1))
            )
            (unfold_i): Unfold(kernel_size=1, dilation=1, padding=0, stride=1)
            (unfold_j): Unfold(kernel_size=7, dilation=1, padding=0, stride=1)
            (pad): ReflectionPad2d((3, 3, 3, 3))
            (aggregation): Aggregation()
          )
          (bn2): BatchNorm2d(64, eps=1e-05, momentum=0.1, affine=True, track_running_stats=True)
          (conv): Conv2d(64, 256, kernel_size=(1, 1), stride=(1, 1))
          (relu): ReLU(inplace=True)
        )
        (2): Bottleneck(
          (bn1): BatchNorm2d(256, eps=1e-05, momentum=0.1, affine=True, track_running_stats=True)
          (sam): SAM(
            (conv1): Conv2d(256, 16, kernel_size=(1, 1), stride=(1, 1))
            (conv2): Conv2d(256, 16, kernel_size=(1, 1), stride=(1, 1))
            (conv3): Conv2d(256, 64, kernel_size=(1, 1), stride=(1, 1))
            (conv_w): Sequential(
              (0): BatchNorm2d(800, eps=1e-05, momentum=0.1, affine=True, track_running_stats=True)
              (1): ReLU(inplace=True)
              (2): Conv2d(800, 8, kernel_size=(1, 1), stride=(1, 1), bias=False)
              (3): BatchNorm2d(8, eps=1e-05, momentum=0.1, affine=True, track_running_stats=True)
              (4): ReLU(inplace=True)
              (5): Conv2d(8, 392, kernel_size=(1, 1), stride=(1, 1))
            )
            (unfold_i): Unfold(kernel_size=1, dilation=1, padding=0, stride=1)
            (unfold_j): Unfold(kernel_size=7, dilation=1, padding=0, stride=1)
            (pad): ReflectionPad2d((3, 3, 3, 3))
            (aggregation): Aggregation()
          )
          (bn2): BatchNorm2d(64, eps=1e-05, momentum=0.1, affine=True, track_running_stats=True)
          (conv): Conv2d(64, 256, kernel_size=(1, 1), stride=(1, 1))
          (relu): ReLU(inplace=True)
        )
      )
      (conv2): Conv2d(256, 512, kernel_size=(1, 1), stride=(1, 1), bias=False)
      (bn2): BatchNorm2d(512, eps=1e-05, momentum=0.1, affine=True, track_running_stats=True)
      (layer2): Sequential(
        (0): Bottleneck(
          (bn1): BatchNorm2d(512, eps=1e-05, momentum=0.1, affine=True, track_running_stats=True)
          (sam): SAM(
            (conv1): Conv2d(512, 32, kernel_size=(1, 1), stride=(1, 1))
            (conv2): Conv2d(512, 32, kernel_size=(1, 1), stride=(1, 1))
            (conv3): Conv2d(512, 128, kernel_size=(1, 1), stride=(1, 1))
            (conv_w): Sequential(
              (0): BatchNorm2d(1600, eps=1e-05, momentum=0.1, affine=True, track_running_stats=True)
              (1): ReLU(inplace=True)
              (2): Conv2d(1600, 16, kernel_size=(1, 1), stride=(1, 1), bias=False)
              (3): BatchNorm2d(16, eps=1e-05, momentum=0.1, affine=True, track_running_stats=True)
              (4): ReLU(inplace=True)
              (5): Conv2d(16, 784, kernel_size=(1, 1), stride=(1, 1))
            )
            (unfold_i): Unfold(kernel_size=1, dilation=1, padding=0, stride=1)
            (unfold_j): Unfold(kernel_size=7, dilation=1, padding=0, stride=1)
            (pad): ReflectionPad2d((3, 3, 3, 3))
            (aggregation): Aggregation()
          )
          (bn2): BatchNorm2d(128, eps=1e-05, momentum=0.1, affine=True, track_running_stats=True)
          (conv): Conv2d(128, 512, kernel_size=(1, 1), stride=(1, 1))
          (relu): ReLU(inplace=True)
        )
        (1): Bottleneck(
          (bn1): BatchNorm2d(512, eps=1e-05, momentum=0.1, affine=True, track_running_stats=True)
          (sam): SAM(
            (conv1): Conv2d(512, 32, kernel_size=(1, 1), stride=(1, 1))
            (conv2): Conv2d(512, 32, kernel_size=(1, 1), stride=(1, 1))
            (conv3): Conv2d(512, 128, kernel_size=(1, 1), stride=(1, 1))
            (conv_w): Sequential(
              (0): BatchNorm2d(1600, eps=1e-05, momentum=0.1, affine=True, track_running_stats=True)
              (1): ReLU(inplace=True)
              (2): Conv2d(1600, 16, kernel_size=(1, 1), stride=(1, 1), bias=False)
              (3): BatchNorm2d(16, eps=1e-05, momentum=0.1, affine=True, track_running_stats=True)
              (4): ReLU(inplace=True)
              (5): Conv2d(16, 784, kernel_size=(1, 1), stride=(1, 1))
            )
            (unfold_i): Unfold(kernel_size=1, dilation=1, padding=0, stride=1)
            (unfold_j): Unfold(kernel_size=7, dilation=1, padding=0, stride=1)
            (pad): ReflectionPad2d((3, 3, 3, 3))
            (aggregation): Aggregation()
          )
          (bn2): BatchNorm2d(128, eps=1e-05, momentum=0.1, affine=True, track_running_stats=True)
          (conv): Conv2d(128, 512, kernel_size=(1, 1), stride=(1, 1))
          (relu): ReLU(inplace=True)
        )
        (2): Bottleneck(
          (bn1): BatchNorm2d(512, eps=1e-05, momentum=0.1, affine=True, track_running_stats=True)
          (sam): SAM(
            (conv1): Conv2d(512, 32, kernel_size=(1, 1), stride=(1, 1))
            (conv2): Conv2d(512, 32, kernel_size=(1, 1), stride=(1, 1))
            (conv3): Conv2d(512, 128, kernel_size=(1, 1), stride=(1, 1))
            (conv_w): Sequential(
              (0): BatchNorm2d(1600, eps=1e-05, momentum=0.1, affine=True, track_running_stats=True)
              (1): ReLU(inplace=True)
              (2): Conv2d(1600, 16, kernel_size=(1, 1), stride=(1, 1), bias=False)
              (3): BatchNorm2d(16, eps=1e-05, momentum=0.1, affine=True, track_running_stats=True)
              (4): ReLU(inplace=True)
              (5): Conv2d(16, 784, kernel_size=(1, 1), stride=(1, 1))
            )
            (unfold_i): Unfold(kernel_size=1, dilation=1, padding=0, stride=1)
            (unfold_j): Unfold(kernel_size=7, dilation=1, padding=0, stride=1)
            (pad): ReflectionPad2d((3, 3, 3, 3))
            (aggregation): Aggregation()
          )
          (bn2): BatchNorm2d(128, eps=1e-05, momentum=0.1, affine=True, track_running_stats=True)
          (conv): Conv2d(128, 512, kernel_size=(1, 1), stride=(1, 1))
          (relu): ReLU(inplace=True)
        )
        (3): Bottleneck(
          (bn1): BatchNorm2d(512, eps=1e-05, momentum=0.1, affine=True, track_running_stats=True)
          (sam): SAM(
            (conv1): Conv2d(512, 32, kernel_size=(1, 1), stride=(1, 1))
            (conv2): Conv2d(512, 32, kernel_size=(1, 1), stride=(1, 1))
            (conv3): Conv2d(512, 128, kernel_size=(1, 1), stride=(1, 1))
            (conv_w): Sequential(
              (0): BatchNorm2d(1600, eps=1e-05, momentum=0.1, affine=True, track_running_stats=True)
              (1): ReLU(inplace=True)
              (2): Conv2d(1600, 16, kernel_size=(1, 1), stride=(1, 1), bias=False)
              (3): BatchNorm2d(16, eps=1e-05, momentum=0.1, affine=True, track_running_stats=True)
              (4): ReLU(inplace=True)
              (5): Conv2d(16, 784, kernel_size=(1, 1), stride=(1, 1))
            )
            (unfold_i): Unfold(kernel_size=1, dilation=1, padding=0, stride=1)
            (unfold_j): Unfold(kernel_size=7, dilation=1, padding=0, stride=1)
            (pad): ReflectionPad2d((3, 3, 3, 3))
            (aggregation): Aggregation()
          )
          (bn2): BatchNorm2d(128, eps=1e-05, momentum=0.1, affine=True, track_running_stats=True)
          (conv): Conv2d(128, 512, kernel_size=(1, 1), stride=(1, 1))
          (relu): ReLU(inplace=True)
        )
      )
      (conv3): Conv2d(512, 1024, kernel_size=(1, 1), stride=(1, 1), bias=False)
      (bn3): BatchNorm2d(1024, eps=1e-05, momentum=0.1, affine=True, track_running_stats=True)
      (layer3): Sequential(
        (0): Bottleneck(
          (bn1): BatchNorm2d(1024, eps=1e-05, momentum=0.1, affine=True, track_running_stats=True)
          (sam): SAM(
            (conv1): Conv2d(1024, 64, kernel_size=(1, 1), stride=(1, 1))
            (conv2): Conv2d(1024, 64, kernel_size=(1, 1), stride=(1, 1))
            (conv3): Conv2d(1024, 256, kernel_size=(1, 1), stride=(1, 1))
            (conv_w): Sequential(
              (0): BatchNorm2d(3200, eps=1e-05, momentum=0.1, affine=True, track_running_stats=True)
              (1): ReLU(inplace=True)
              (2): Conv2d(3200, 32, kernel_size=(1, 1), stride=(1, 1), bias=False)
              (3): BatchNorm2d(32, eps=1e-05, momentum=0.1, affine=True, track_running_stats=True)
              (4): ReLU(inplace=True)
              (5): Conv2d(32, 1568, kernel_size=(1, 1), stride=(1, 1))
            )
            (unfold_i): Unfold(kernel_size=1, dilation=1, padding=0, stride=1)
            (unfold_j): Unfold(kernel_size=7, dilation=1, padding=0, stride=1)
            (pad): ReflectionPad2d((3, 3, 3, 3))
            (aggregation): Aggregation()
          )
          (bn2): BatchNorm2d(256, eps=1e-05, momentum=0.1, affine=True, track_running_stats=True)
          (conv): Conv2d(256, 1024, kernel_size=(1, 1), stride=(1, 1))
          (relu): ReLU(inplace=True)
        )
        (1): Bottleneck(
          (bn1): BatchNorm2d(1024, eps=1e-05, momentum=0.1, affine=True, track_running_stats=True)
          (sam): SAM(
            (conv1): Conv2d(1024, 64, kernel_size=(1, 1), stride=(1, 1))
            (conv2): Conv2d(1024, 64, kernel_size=(1, 1), stride=(1, 1))
            (conv3): Conv2d(1024, 256, kernel_size=(1, 1), stride=(1, 1))
            (conv_w): Sequential(
              (0): BatchNorm2d(3200, eps=1e-05, momentum=0.1, affine=True, track_running_stats=True)
              (1): ReLU(inplace=True)
              (2): Conv2d(3200, 32, kernel_size=(1, 1), stride=(1, 1), bias=False)
              (3): BatchNorm2d(32, eps=1e-05, momentum=0.1, affine=True, track_running_stats=True)
              (4): ReLU(inplace=True)
              (5): Conv2d(32, 1568, kernel_size=(1, 1), stride=(1, 1))
            )
            (unfold_i): Unfold(kernel_size=1, dilation=1, padding=0, stride=1)
            (unfold_j): Unfold(kernel_size=7, dilation=1, padding=0, stride=1)
            (pad): ReflectionPad2d((3, 3, 3, 3))
            (aggregation): Aggregation()
          )
          (bn2): BatchNorm2d(256, eps=1e-05, momentum=0.1, affine=True, track_running_stats=True)
          (conv): Conv2d(256, 1024, kernel_size=(1, 1), stride=(1, 1))
          (relu): ReLU(inplace=True)
        )
        (2): Bottleneck(
          (bn1): BatchNorm2d(1024, eps=1e-05, momentum=0.1, affine=True, track_running_stats=True)
          (sam): SAM(
            (conv1): Conv2d(1024, 64, kernel_size=(1, 1), stride=(1, 1))
            (conv2): Conv2d(1024, 64, kernel_size=(1, 1), stride=(1, 1))
            (conv3): Conv2d(1024, 256, kernel_size=(1, 1), stride=(1, 1))
            (conv_w): Sequential(
              (0): BatchNorm2d(3200, eps=1e-05, momentum=0.1, affine=True, track_running_stats=True)
              (1): ReLU(inplace=True)
              (2): Conv2d(3200, 32, kernel_size=(1, 1), stride=(1, 1), bias=False)
              (3): BatchNorm2d(32, eps=1e-05, momentum=0.1, affine=True, track_running_stats=True)
              (4): ReLU(inplace=True)
              (5): Conv2d(32, 1568, kernel_size=(1, 1), stride=(1, 1))
            )
            (unfold_i): Unfold(kernel_size=1, dilation=1, padding=0, stride=1)
            (unfold_j): Unfold(kernel_size=7, dilation=1, padding=0, stride=1)
            (pad): ReflectionPad2d((3, 3, 3, 3))
            (aggregation): Aggregation()
          )
          (bn2): BatchNorm2d(256, eps=1e-05, momentum=0.1, affine=True, track_running_stats=True)
          (conv): Conv2d(256, 1024, kernel_size=(1, 1), stride=(1, 1))
          (relu): ReLU(inplace=True)
        )
        (3): Bottleneck(
          (bn1): BatchNorm2d(1024, eps=1e-05, momentum=0.1, affine=True, track_running_stats=True)
          (sam): SAM(
            (conv1): Conv2d(1024, 64, kernel_size=(1, 1), stride=(1, 1))
            (conv2): Conv2d(1024, 64, kernel_size=(1, 1), stride=(1, 1))
            (conv3): Conv2d(1024, 256, kernel_size=(1, 1), stride=(1, 1))
            (conv_w): Sequential(
              (0): BatchNorm2d(3200, eps=1e-05, momentum=0.1, affine=True, track_running_stats=True)
              (1): ReLU(inplace=True)
              (2): Conv2d(3200, 32, kernel_size=(1, 1), stride=(1, 1), bias=False)
              (3): BatchNorm2d(32, eps=1e-05, momentum=0.1, affine=True, track_running_stats=True)
              (4): ReLU(inplace=True)
              (5): Conv2d(32, 1568, kernel_size=(1, 1), stride=(1, 1))
            )
            (unfold_i): Unfold(kernel_size=1, dilation=1, padding=0, stride=1)
            (unfold_j): Unfold(kernel_size=7, dilation=1, padding=0, stride=1)
            (pad): ReflectionPad2d((3, 3, 3, 3))
            (aggregation): Aggregation()
          )
          (bn2): BatchNorm2d(256, eps=1e-05, momentum=0.1, affine=True, track_running_stats=True)
          (conv): Conv2d(256, 1024, kernel_size=(1, 1), stride=(1, 1))
          (relu): ReLU(inplace=True)
        )
        (4): Bottleneck(
          (bn1): BatchNorm2d(1024, eps=1e-05, momentum=0.1, affine=True, track_running_stats=True)
          (sam): SAM(
            (conv1): Conv2d(1024, 64, kernel_size=(1, 1), stride=(1, 1))
            (conv2): Conv2d(1024, 64, kernel_size=(1, 1), stride=(1, 1))
            (conv3): Conv2d(1024, 256, kernel_size=(1, 1), stride=(1, 1))
            (conv_w): Sequential(
              (0): BatchNorm2d(3200, eps=1e-05, momentum=0.1, affine=True, track_running_stats=True)
              (1): ReLU(inplace=True)
              (2): Conv2d(3200, 32, kernel_size=(1, 1), stride=(1, 1), bias=False)
              (3): BatchNorm2d(32, eps=1e-05, momentum=0.1, affine=True, track_running_stats=True)
              (4): ReLU(inplace=True)
              (5): Conv2d(32, 1568, kernel_size=(1, 1), stride=(1, 1))
            )
            (unfold_i): Unfold(kernel_size=1, dilation=1, padding=0, stride=1)
            (unfold_j): Unfold(kernel_size=7, dilation=1, padding=0, stride=1)
            (pad): ReflectionPad2d((3, 3, 3, 3))
            (aggregation): Aggregation()
          )
          (bn2): BatchNorm2d(256, eps=1e-05, momentum=0.1, affine=True, track_running_stats=True)
          (conv): Conv2d(256, 1024, kernel_size=(1, 1), stride=(1, 1))
          (relu): ReLU(inplace=True)
        )
        (5): Bottleneck(
          (bn1): BatchNorm2d(1024, eps=1e-05, momentum=0.1, affine=True, track_running_stats=True)
          (sam): SAM(
            (conv1): Conv2d(1024, 64, kernel_size=(1, 1), stride=(1, 1))
            (conv2): Conv2d(1024, 64, kernel_size=(1, 1), stride=(1, 1))
            (conv3): Conv2d(1024, 256, kernel_size=(1, 1), stride=(1, 1))
            (conv_w): Sequential(
              (0): BatchNorm2d(3200, eps=1e-05, momentum=0.1, affine=True, track_running_stats=True)
              (1): ReLU(inplace=True)
              (2): Conv2d(3200, 32, kernel_size=(1, 1), stride=(1, 1), bias=False)
              (3): BatchNorm2d(32, eps=1e-05, momentum=0.1, affine=True, track_running_stats=True)
              (4): ReLU(inplace=True)
              (5): Conv2d(32, 1568, kernel_size=(1, 1), stride=(1, 1))
            )
            (unfold_i): Unfold(kernel_size=1, dilation=1, padding=0, stride=1)
            (unfold_j): Unfold(kernel_size=7, dilation=1, padding=0, stride=1)
            (pad): ReflectionPad2d((3, 3, 3, 3))
            (aggregation): Aggregation()
          )
          (bn2): BatchNorm2d(256, eps=1e-05, momentum=0.1, affine=True, track_running_stats=True)
          (conv): Conv2d(256, 1024, kernel_size=(1, 1), stride=(1, 1))
          (relu): ReLU(inplace=True)
        )
      )
      (conv4): Conv2d(1024, 2048, kernel_size=(1, 1), stride=(1, 1), bias=False)
      (bn4): BatchNorm2d(2048, eps=1e-05, momentum=0.1, affine=True, track_running_stats=True)
      (layer4): Sequential(
        (0): Bottleneck(
          (bn1): BatchNorm2d(2048, eps=1e-05, momentum=0.1, affine=True, track_running_stats=True)
          (sam): SAM(
            (conv1): Conv2d(2048, 128, kernel_size=(1, 1), stride=(1, 1))
            (conv2): Conv2d(2048, 128, kernel_size=(1, 1), stride=(1, 1))
            (conv3): Conv2d(2048, 512, kernel_size=(1, 1), stride=(1, 1))
            (conv_w): Sequential(
              (0): BatchNorm2d(6400, eps=1e-05, momentum=0.1, affine=True, track_running_stats=True)
              (1): ReLU(inplace=True)
              (2): Conv2d(6400, 64, kernel_size=(1, 1), stride=(1, 1), bias=False)
              (3): BatchNorm2d(64, eps=1e-05, momentum=0.1, affine=True, track_running_stats=True)
              (4): ReLU(inplace=True)
              (5): Conv2d(64, 3136, kernel_size=(1, 1), stride=(1, 1))
            )
            (unfold_i): Unfold(kernel_size=1, dilation=1, padding=0, stride=1)
            (unfold_j): Unfold(kernel_size=7, dilation=1, padding=0, stride=1)
            (pad): ReflectionPad2d((3, 3, 3, 3))
            (aggregation): Aggregation()
          )
          (bn2): BatchNorm2d(512, eps=1e-05, momentum=0.1, affine=True, track_running_stats=True)
          (conv): Conv2d(512, 2048, kernel_size=(1, 1), stride=(1, 1))
          (relu): ReLU(inplace=True)
        )
        (1): Bottleneck(
          (bn1): BatchNorm2d(2048, eps=1e-05, momentum=0.1, affine=True, track_running_stats=True)
          (sam): SAM(
            (conv1): Conv2d(2048, 128, kernel_size=(1, 1), stride=(1, 1))
            (conv2): Conv2d(2048, 128, kernel_size=(1, 1), stride=(1, 1))
            (conv3): Conv2d(2048, 512, kernel_size=(1, 1), stride=(1, 1))
            (conv_w): Sequential(
              (0): BatchNorm2d(6400, eps=1e-05, momentum=0.1, affine=True, track_running_stats=True)
              (1): ReLU(inplace=True)
              (2): Conv2d(6400, 64, kernel_size=(1, 1), stride=(1, 1), bias=False)
              (3): BatchNorm2d(64, eps=1e-05, momentum=0.1, affine=True, track_running_stats=True)
              (4): ReLU(inplace=True)
              (5): Conv2d(64, 3136, kernel_size=(1, 1), stride=(1, 1))
            )
            (unfold_i): Unfold(kernel_size=1, dilation=1, padding=0, stride=1)
            (unfold_j): Unfold(kernel_size=7, dilation=1, padding=0, stride=1)
            (pad): ReflectionPad2d((3, 3, 3, 3))
            (aggregation): Aggregation()
          )
          (bn2): BatchNorm2d(512, eps=1e-05, momentum=0.1, affine=True, track_running_stats=True)
          (conv): Conv2d(512, 2048, kernel_size=(1, 1), stride=(1, 1))
          (relu): ReLU(inplace=True)
        )
        (2): Bottleneck(
          (bn1): BatchNorm2d(2048, eps=1e-05, momentum=0.1, affine=True, track_running_stats=True)
          (sam): SAM(
            (conv1): Conv2d(2048, 128, kernel_size=(1, 1), stride=(1, 1))
            (conv2): Conv2d(2048, 128, kernel_size=(1, 1), stride=(1, 1))
            (conv3): Conv2d(2048, 512, kernel_size=(1, 1), stride=(1, 1))
            (conv_w): Sequential(
              (0): BatchNorm2d(6400, eps=1e-05, momentum=0.1, affine=True, track_running_stats=True)
              (1): ReLU(inplace=True)
              (2): Conv2d(6400, 64, kernel_size=(1, 1), stride=(1, 1), bias=False)
              (3): BatchNorm2d(64, eps=1e-05, momentum=0.1, affine=True, track_running_stats=True)
              (4): ReLU(inplace=True)
              (5): Conv2d(64, 3136, kernel_size=(1, 1), stride=(1, 1))
            )
            (unfold_i): Unfold(kernel_size=1, dilation=1, padding=0, stride=1)
            (unfold_j): Unfold(kernel_size=7, dilation=1, padding=0, stride=1)
            (pad): ReflectionPad2d((3, 3, 3, 3))
            (aggregation): Aggregation()
          )
          (bn2): BatchNorm2d(512, eps=1e-05, momentum=0.1, affine=True, track_running_stats=True)
          (conv): Conv2d(512, 2048, kernel_size=(1, 1), stride=(1, 1))
          (relu): ReLU(inplace=True)
        )
      )
      (relu): ReLU(inplace=True)
      (pool): MaxPool2d(kernel_size=2, stride=2, padding=0, dilation=1, ceil_mode=False)
      (avgpool): AdaptiveAvgPool2d(output_size=(1, 1))
      (fc): Linear(in_features=2048, out_features=1000, bias=True)
    )
  )
  (proposal_generator): RPN(
    (rpn_head): StandardRPNHead(
      (conv): Conv2d(256, 256, kernel_size=(3, 3), stride=(1, 1), padding=(1, 1))
      (objectness_logits): Conv2d(256, 3, kernel_size=(1, 1), stride=(1, 1))
      (anchor_deltas): Conv2d(256, 12, kernel_size=(1, 1), stride=(1, 1))
    )
    (anchor_generator): DefaultAnchorGenerator(
      (cell_anchors): BufferList()
    )
  )
  (roi_heads): StandardROIHeads(
    (box_pooler): ROIPooler(
      (level_poolers): ModuleList(
        (0): ROIAlign(output_size=(7, 7), spatial_scale=0.25, sampling_ratio=0, aligned=True)
        (1): ROIAlign(output_size=(7, 7), spatial_scale=0.125, sampling_ratio=0, aligned=True)
        (2): ROIAlign(output_size=(7, 7), spatial_scale=0.0625, sampling_ratio=0, aligned=True)
        (3): ROIAlign(output_size=(7, 7), spatial_scale=0.03125, sampling_ratio=0, aligned=True)
      )
    )
    (box_head): FastRCNNConvFCHead(
      (flatten): Flatten(start_dim=1, end_dim=-1)
      (fc1): Linear(in_features=12544, out_features=1024, bias=True)
      (fc_relu1): ReLU()
      (fc2): Linear(in_features=1024, out_features=1024, bias=True)
      (fc_relu2): ReLU()
    )
    (box_predictor): FastRCNNOutputLayers(
      (cls_score): Linear(in_features=1024, out_features=81, bias=True)
      (bbox_pred): Linear(in_features=1024, out_features=320, bias=True)
    )
    (mask_pooler): ROIPooler(
      (level_poolers): ModuleList(
        (0): ROIAlign(output_size=(14, 14), spatial_scale=0.25, sampling_ratio=0, aligned=True)
        (1): ROIAlign(output_size=(14, 14), spatial_scale=0.125, sampling_ratio=0, aligned=True)
        (2): ROIAlign(output_size=(14, 14), spatial_scale=0.0625, sampling_ratio=0, aligned=True)
        (3): ROIAlign(output_size=(14, 14), spatial_scale=0.03125, sampling_ratio=0, aligned=True)
      )
    )
    (mask_head): MaskRCNNConvUpsampleHead(
      (mask_fcn1): Conv2d(
        256, 256, kernel_size=(3, 3), stride=(1, 1), padding=(1, 1)
        (activation): ReLU()
      )
      (mask_fcn2): Conv2d(
        256, 256, kernel_size=(3, 3), stride=(1, 1), padding=(1, 1)
        (activation): ReLU()
      )
      (mask_fcn3): Conv2d(
        256, 256, kernel_size=(3, 3), stride=(1, 1), padding=(1, 1)
        (activation): ReLU()
      )
      (mask_fcn4): Conv2d(
        256, 256, kernel_size=(3, 3), stride=(1, 1), padding=(1, 1)
        (activation): ReLU()
      )
      (deconv): ConvTranspose2d(256, 256, kernel_size=(2, 2), stride=(2, 2))
      (deconv_relu): ReLU()
      (predictor): Conv2d(256, 80, kernel_size=(1, 1), stride=(1, 1))
    )
  )
)
[04/02 00:44:55] d2.data.datasets.coco INFO: Loading /home/kvargas/kian/datasets/coco/annotations/instances_train2017.json takes 10.90 seconds.
[04/02 00:44:55] d2.data.datasets.coco INFO: Loaded 118287 images in COCO format from /home/kvargas/kian/datasets/coco/annotations/instances_train2017.json
[04/02 00:45:00] d2.data.build INFO: Removed 1021 images with no usable annotations. 117266 images left.
…
